…
      nn.ReLU(inplace=True),\n            nn.Linear(4096, num_classes),\n        )\n    def forward(self, x):\n        x = self.features(x)\n        x = x.view(x.size(0), -1)\n        x = self.classifier(x)\n        return(x)"
  },
  {
    "objectID": "posts/AlexNet.html#step-6-create-model-instance",
    "href": "posts/AlexNet.html#step-6-create-model-instance",
    "title": "AlexNet",
    "section": "Step 6 : Create Model instance",
    "text": "Step 6 : Create Model instance\n\n# Create Moedl instance\nmodel = AlexNet().to(device)\nprint(model)\n\nAlexNet(\n  (features): Sequential(\n    (0): Conv2d(3, 96, kernel_size=(11, 11), stride=(4, 4))\n    (1): ReLU(inplace=True)\n    (2): MaxPool2d(kernel_size=3, stride=2, padding=1, dilation=1, ceil_mode=False)\n    (3): Conv2d(96, 256, kernel_size=(5, 5), stride=(1, 1), padding=(2, 2))\n    (4): ReLU(inplace=True)\n    (5): MaxPool2d(kernel_size=3, stride=2, padding=1, dilation=1, ceil_mode=False)\n    (6): Conv2d(256, 384, kernel_size=(3, 3), stride=(1, 1), padding=(1, 1))\n    (7): ReLU(inplace=True)\n    (8): Conv2d(384, 384, kernel_size=(3, 3), stride=(1, 1), padding=(1, 1))\n    (9): ReLU(inplace=True)\n    (10): Conv2d(384, 256, kernel_size=(3, 3), stride=(1, 1), padding=(1, 1))\n    (11): ReLU(inplace=True)\n    (12): MaxPool2d(kernel_size=3, stride=2, padding=1, dilation=1, ceil_mode=False)\n  )\n  (classifier): Sequential(\n    (0): Linear(in_features=256, out_features=4096, bias=True)\n    (1): Dropout(p=0.5, inplace=False)\n    (2): ReLU(inplace=True)\n    (3): Linear(in_features=4096, out_features=10, bias=True)\n  )\n)"
  },
  {
    "objectID": "posts/AlexNet.html#step-7-model-compile",
    "href": "posts/AlexNet.html#step-7-model-compile",
    "title": "AlexNet",
    "section": "Step 7 : Model compile",
    "text": "Step 7 : Model compile\n\n# loss\nloss = nn.CrossEntropyLoss()\n\n# optimizer\noptimizer = torch.optim.Adam(model.parameters(), lr=learning_rate)"
…
 = \"detectron2://COCO-InstanceSegmentation/mask_rcnn_R_50_FPN_3x/137849600/model_final_f10217.pkl\"  # initialize from model zoo\ncfg.SOLVER.IMS_PER_BATCH = 2\ncfg.SOLVER.BASE_LR = 0.002\ncfg.SOLVER.MAX_ITER = 1000\ncfg.MODEL.ROI_HEADS.BATCH_SIZE_PER_IMAGE = 128\ncfg.MODEL.ROI_HEADS.NUM_CLASSES = 80\ncfg.OUTPUT_DIR = \"/root/2024winter/DL_tutorial/posts/outputs\"\nos.makedirs(cfg.OUTPUT_DIR, exist_ok=True)\ntrainer = DefaultTrainer(cfg)\ntrainer.resume_or_load(resume=False)\ntrainer.train()\n\n[02/13 04:44:51 d2.engine.defaults]: Model:\nGeneralizedRCNN(\n  (backbone): FPN(\n    (fpn_lateral2): Conv2d(256, 256, kernel_size=(1, 1), stride=(1, 1))\n    (fpn_output2): Conv2d(256, 256, kernel_size=(3, 3), stride=(1, 1), padding=(1, 1))\n    (fpn_lateral3): Conv2d(512, 256, kernel_size=(1, 1), stride=(1, 1))\n    (fpn_output3): Conv2d(256, 256, kernel_size=(3, 3), stride=(1, 1), padding=(1, 1))\n    (fpn_lateral4): Conv2d(1024, 256, kernel_size=(1, 1), stride=(1, 1))\n    (fpn_output4): Conv2d(256, 256, kernel_size=(3, 3), stride=(1, 1), padding=(1, 1))\n    (fpn_lateral5): Conv2d(2048, 256, kernel_size=(1, 1), stride=(1, 1))\n    (fpn_output5): Conv2d(256, 256, kernel_size=(3, 3), stride=(1, 1), padding=(1, 1))\n    (top_block): LastLevelMaxPool()\n    (bottom_up): ResNet(\n      (stem): BasicStem(\n        (conv1): Conv2d(\n          3, 64, kernel_size=(7, 7), stride=(2, 2), padding=(3, 3), bias=False\n          (norm): FrozenBatchNorm2d(num_features=64, eps=1e-05)\n        )\n      )\n      (res2): Sequential(\n        (0): BottleneckBlock(\n          (shortcut): Conv2d(\n            64, 256, kernel_size=(1, 1), stride=(1, 1), bias=False\n            (norm): FrozenBatchNorm2d(num_features=256, eps=1e-05)\n          )\n          (conv1): Conv2d(\n            64, 64, kernel_size=(1, 1), stride=(1, 1), bias=False\n            (norm): FrozenBatchNorm2d(num_features=64, eps=1e-05)\n          )\n          (conv2): Conv2d(\n            64, 64, kernel_size=(3, 3), stride=(1, 1), padding=(1, 1), bias=False\n            (norm): FrozenBatchNorm2d(num_features=64, eps=1e-05)\n          )\n          (conv3): Conv2d(\n            64, 256, kernel_size=(1, 1), stride=(1, 1), bias=False\n            (norm): FrozenBatchNorm2d(num_features=256, eps=1e-05)\n          )\n        )\n        (1): BottleneckBlock(\n          (conv1): Conv2d(\n            256, 64, kernel_size=(1, 1), stride=(1, 1), bias=False\n            (norm): FrozenBatchNorm2d(num_features=64, eps=1e-05)\n          )\n          (conv2): Conv2d(\n            64, 64, kernel_size=(3, 3), stride=(1, 1), padding=(1, 1), bias=False\n            (norm): FrozenBatchNorm2d(num_features=64, eps=1e-05)\n          )\n          (conv3): Conv2d(\n            64, 256, kernel_size=(1, 1), stride=(1, 1), bias=False\n            (norm): FrozenBatchNorm2d(num_features=256, eps=1e-05)\n          )\n        )\n        (2): BottleneckBlock(\n          (conv1): Conv2d(\n            256, 64, kernel_size=(1, 1), stride=(1, 1), bias=False\n            (norm): FrozenBatchNorm2d(num_features=64, eps=1e-05)\n          )\n          (conv2): Conv2d(\n            64, 64, kernel_size=(3, 3), stride=(1, 1), padding=(1, 1), bias=False\n            (norm): FrozenBatchNorm2d(num_features=64, eps=1e-05)\n          )\n          (conv3): Conv2d(\n            64, 256, kernel_size=(1, 1), stride=(1, 1), bias=False\n            (norm): FrozenBatchNorm2d(num_features=256, eps=1e-05)\n          )\n        )\n      )\n      (res3): Sequential(\n        (0): BottleneckBlock(\n          (shortcut): Conv2d(\n            256, 512, kernel_size=(1, 1), stride=(2, 2), bias=False\n            (norm): FrozenBatchNorm2d(num_features=512, eps=1e-05)\n          )\n          (conv1): Conv2d(\n            256, 128, kernel_size=(1, 1), stride=(2, 2), bias=False\n            (norm): FrozenBatchNorm2d(num_features=128, eps=1e-05)\n          )\n          (conv2): Conv2d(\n            128, 128, kernel_size=(3, 3), stride=(1, 1), padding=(1, 1), bias=False\n            (norm): FrozenBatchNorm2d(num_features=128, eps=1e-05)\n          )\n          (conv3): Conv2d(\n            128, 512, kernel_size=(1, 1), stride=(1, 1), bias=False\n            (norm): FrozenBatchNorm2d(num_features=512, eps=1e-05)\n          )\n        )\n        (1): BottleneckBlock(\n          (conv1): Conv2d(\n            512, 128, kernel_size=(1, 1), stride=(1, 1), bias=False\n            (norm): FrozenBatchNorm2d(num_features=128, eps=1e-05)\n          )\n          (conv2): Conv2d(\n            128, 128, kernel_size=(3, 3), stride=(1, 1), padding=(1, 1), bias=False\n            (norm): FrozenBatchNorm2d(num_features=128, eps=1e-05)\n          )\n          (conv3): Conv2d(\n            128, 512, kernel_size=(1, 1), stride=(1, 1), bias=False\n            (norm): FrozenBatchNorm2d(num_features=512, eps=1e-05)\n          )\n        )\n        (2): BottleneckBlock(\n          (conv1): Conv2d(\n            512, 128, kernel_size=(1, 1), stride=(1, 1), bias=False\n            (norm): FrozenBatchNorm2d(num_features=128, eps=1e-05)\n          )\n          (conv2): Conv2d(\n            128, 128, kernel_size=(3, 3), stride=(1, 1), padding=(1, 1), bias=False\n            (norm): FrozenBatchNorm2d(num_features=128, eps=1e-05)\n          )\n          (conv3): Conv2d(\n            128, 512, kernel_size=(1, 1), stride=(1, 1), bias=False\n            (norm): FrozenBatchNorm2d(num_features=512, eps=1e-05)\n          )\n        )\n        (3): BottleneckBlock(\n          (conv1): Conv2d(\n            512, 128, kernel_size=(1, 1), stride=(1, 1), bias=False\n            (norm): FrozenBatchNorm2d(num_features=128, eps=1e-05)\n          )\n          (conv2): Conv2d(\n            128, 128, kernel_size=(3, 3), stride=(1, 1), padding=(1, 1), bias=False\n            (norm): FrozenBatchNorm2d(num_features=128, eps=1e-05)\n          )\n          (conv3): Conv2d(\n            128, 512, kernel_size=(1, 1), stride=(1, 1), bias=False\n            (norm): FrozenBatchNorm2d(num_features=512, eps=1e-05)\n          )\n        )\n      )\n      (res4): Sequential(\n        (0): BottleneckBlock(\n          (shortcut): Conv2d(\n            512, 1024, kernel_size=(1, 1), stride=(2, 2), bias=False\n            (norm): FrozenBatchNorm2d(num_features=1024, eps=1e-05)\n          )\n          (conv1): Conv2d(\n            512, 256, kernel_size=(1, 1), stride=(2, 2), bias=False\n            (norm): FrozenBatchNorm2d(num_features=256, eps=1e-05)\n          )\n          (conv2): Conv2d(\n            256, 256, kernel_size=(3, 3), stride=(1, 1), padding=(1, 1), bias=False\n            (norm): FrozenBatchNorm2d(num_features=256, eps=1e-05)\n          )\n          (conv3): Conv2d(\n            256, 1024, kernel_size=(1, 1), stride=(1, 1), bias=False\n            (norm): FrozenBatchNorm2d(num_features=1024, eps=1e-05)\n          )\n        )\n        (1): BottleneckBlock(\n          (conv1): Conv2d(\n            1024, 256, kernel_size=(1, 1), stride=(1, 1), bias=False\n            (norm): FrozenBatchNorm2d(num_features=256, eps=1e-05)\n          )\n          (conv2): Conv2d(\n            256, 256, kernel_size=(3, 3), stride=(1, 1), padding=(1, 1), bias=False\n            (norm): FrozenBatchNorm2d(num_features=256, eps=1e-05)\n          )\n          (conv3): Conv2d(\n            256, 1024, kernel_size=(1, 1), stride=(1, 1), bias=False\n            (norm): FrozenBatchNorm2d(num_features=1024, eps=1e-05)\n          )\n        )\n        (2): BottleneckBlock(\n          (conv1): Conv2d(\n            1024, 256, kernel_size=(1, 1), stride=(1, 1), bias=False\n            (norm): FrozenBatchNorm2d(num_features=256, eps=1e-05)\n          )\n          (conv2): Conv2d(\n            256, 256, kernel_size=(3, 3), stride=(1, 1), padding=(1, 1), bias=False\n            (norm): FrozenBatchNorm2d(num_features=256, eps=1e-05)\n          )\n          (conv3): Conv2d(\n            256, 1024, kernel_size=(1, 1), stride=(1, 1), bias=False\n            (norm): FrozenBatchNorm2d(num_features=1024, eps=1e-05)\n          )\n        )\n        (3): BottleneckBlock(\n          (conv1): Conv2d(\n            1024, 256, kernel_size=(1, 1), stride=(1, 1), bias=False\n            (norm): FrozenBatchNorm2d(num_features=256, eps=1e-05)\n          )\n          (conv2): Conv2d(\n            256, 256, kernel_size=(3, 3), stride=(1, 1), padding=(1, 1), bias=False\n            (norm): FrozenBatchNorm2d(num_features=256, eps=1e-05)\n          )\n          (conv3): Conv2d(\n            256, 1024, kernel_size=(1, 1), stride=(1, 1), bias=False\n            (norm): FrozenBatchNorm2d(num_features=1024, eps=1e-05)\n          )\n        )\n        (4): BottleneckBlock(\n          (conv1): Conv2d(\n            1024, 256, kernel_size=(1, 1), stride=(1, 1), bias=False\n            (norm): FrozenBatchNorm2d(num_features=256, eps=1e-05)\n          )\n          (conv2): Conv2d(\n            256, 256, kernel_size=(3, 3), stride=(1, 1), padding=(1, 1), bias=False\n            (norm): FrozenBatchNorm2d(num_features=256, eps=1e-05)\n          )\n          (conv3): Conv2d(\n            256, 1024, kernel_size=(1, 1), stride=(1, 1), bias=False\n            (norm): FrozenBatchNorm2d(num_features=1024, eps=1e-05)\n          )\n        )\n        (5): BottleneckBlock(\n          (conv1): Conv2d(\n            1024, 256, kernel_size=(1, 1), stride=(1, 1), bias=False\n            (norm): FrozenBatchNorm2d(num_features=256, eps=1e-05)\n          )\n          (conv2): Conv2d(\n            256, 256, kernel_size=(3, 3), stride=(1, 1), padding=(1, 1), bias=False\n            (norm): FrozenBatchNorm2d(num_features=256, eps=1e-05)\n          )\n          (conv3): Conv2d(\n            256, 1024, kernel_size=(1, 1), stride=(1, 1), bias=False\n            (norm): FrozenBatchNorm2d(num_features=1024, eps=1e-05)\n          )\n        )\n      )\n      (res5): Sequential(\n        (0): BottleneckBlock(\n          (shortcut): Conv2d(\n            1024, 2048, kernel_size=(1, 1), stride=(2, 2), bias=False\n            (norm): FrozenBatchNorm2d(num_features=2048, eps=1e-05)\n          )\n          (conv1): Conv2d(\n            1024, 512, kernel_size=(1, 1), stride=(2, 2), bias=False\n            (norm): FrozenBatchNorm2d(num_features=512, eps=1e-05)\n          )\n          (conv2): Conv2d(\n            512, 512, kernel_size=(3, 3), stride=(1, 1), padding=(1, 1), bias=False\n            (norm): FrozenBatchNorm2d(num_features=512, eps=1e-05)\n          )\n          (conv3): Conv2d(\n            512, 2048, kernel_size=(1, 1), stride=(1, 1), bias=False\n            (norm): FrozenBatchNorm2d(num_features=2048, eps=1e-05)\n          )\n        )\n        (1): BottleneckBlock(\n          (conv1): Conv2d(\n            2048, 512, kernel_size=(1, 1), stride=(1, 1), bias=False\n            (norm): FrozenBatchNorm2d(num_features=512, eps=1e-05)\n          )\n          (conv2): Conv2d(\n            512, 512, kernel_size=(3, 3), stride=(1, 1), padding=(1, 1), bias=False\n            (norm): FrozenBatchNorm2d(num_features=512, eps=1e-05)\n          )\n          (conv3): Conv2d(\n            512, 2048, kernel_size=(1, 1), stride=(1, 1), bias=False\n            (norm): FrozenBatchNorm2d(num_features=2048, eps=1e-05)\n          )\n        )\n        (2): BottleneckBlock(\n          (conv1): Conv2d(\n            2048, 512, kernel_size=(1, 1), stride=(1, 1), bias=False\n            (norm): FrozenBatchNorm2d(num_features=512, eps=1e-05)\n          )\n          (conv2): Conv2d(\n            512, 512, kernel_size=(3, 3), stride=(1, 1), padding=(1, 1), bias=False\n            (norm): FrozenBatchNorm2d(num_features=512, eps=1e-05)\n          )\n          (conv3): Conv2d(\n            512, 2048, kernel_size=(1, 1), stride=(1, 1), bias=False\n            (norm): FrozenBatchNorm2d(num_features=2048, eps=1e-05)\n          )\n        )\n      )\n    )\n  )\n  (proposal_generator): RPN(\n    (rpn_head): StandardRPNHead(\n      (conv): Conv2d(\n        256, 256, kernel_size=(3, 3), stride=(1, 1), padding=(1, 1)\n        (activation): ReLU()\n      )\n      (objectness_logits): Conv2d(256, 3, kernel_size=(1, 1), stride=(1, 1))\n      (anchor_deltas): Conv2d(256, 12, kernel_size=(1, 1), stride=(1, 1))\n    )\n    (anchor_generator): DefaultAnchorGenerator(\n      (cell_anchors): BufferList()\n    )\n  )\n  (roi_heads): StandardROIHeads(\n    (box_pooler): ROIPooler(\n      (level_poolers): ModuleList(\n        (0): ROIAlign(output_size=(7, 7), spatial_scale=0.25, sampling_ratio=0, aligned=True)\n        (1): ROIAlign(output_size=(7, 7), spatial_scale=0.125, sampling_ratio=0, aligned=True)\n        (2): ROIAlign(output_size=(7, 7), spatial_scale=0.0625, sampling_ratio=0, aligned=True)\n        (3): ROIAlign(output_size=(7, 7), spatial_scale=0.03125, sampling_ratio=0, aligned=True)\n      )\n    )\n    (box_head): FastRCNNConvFCHead(\n      (flatten): Flatten(start_dim=1, end_dim=-1)\n      (fc1): Linear(in_features=12544, out_features=1024, bias=True)\n      (fc_relu1): ReLU()\n      (fc2): Linear(in_features=1024, out_features=1024, bias=True)\n      (fc_relu2): ReLU()\n    )\n    (box_predictor): FastRCNNOutputLayers(\n      (cls_score): Linear(in_features=1024, out_features=81, bias=True)\n      (bbox_pred): Linear(in_features=1024, out_features=320, bias=True)\n    )\n    (mask_pooler): ROIPooler(\n      (level_poolers): ModuleList(\n        (0): ROIAlign(output_size=(14, 14), spatial_scale=0.25, sampling_ratio=0, aligned=True)\n        (1): ROIAlign(output_size=(14, 14), spatial_scale=0.125, sampling_ratio=0, aligned=True)\n        (2): ROIAlign(output_size=(14, 14), spatial_scale=0.0625, sampling_ratio=0, aligned=True)\n        (3): ROIAlign(output_size=(14, 14), spatial_scale=0.03125, sampling_ratio=0, aligned=True)\n      )\n    )\n    (mask_head): MaskRCNNConvUpsampleHead(\n      (mask_fcn1): Conv2d(\n        256, 256, kernel_size=(3, 3), stride=(1, 1), padding=(1, 1)\n        (activation): ReLU()\n      )\n      (mask_fcn2): Conv2d(\n        256, 256, kernel_size=(3, 3), stride=(1, 1), padding=(1, 1)\n        (activation): ReLU()\n      )\n      (mask_fcn3): Conv2d(\n        256, 256, kernel_size=(3, 3), stride=(1, 1), padding=(1, 1)\n        (activation): ReLU()\n      )\n      (mask_fcn4): Conv2d(\n        256, 256, kernel_size=(3, 3), stride=(1, 1), padding=(1, 1)\n        (activation): ReLU()\n      )\n      (deconv): ConvTranspose2d(256, 256, kernel_size=(2, 2), stride=(2, 2))\n      (deconv_relu): ReLU()\n      (predictor): Conv2d(256, 80, kernel_size=(1, 1), stride=(1, 1))\n    )\n  )\n)\n[02/13 04:44:52 d2.data.datasets.coco]: Loading /root/2024winter/DL_tutorial/posts/coco/annotations/instances_val2017.json takes 1.07 seconds.\n[02/13 04:44:52 d2.data.datasets.coco]: Loaded 5000 images in COCO format from /root/2024winter/DL_tutorial/posts/coco/annotations/instances_val2017.json\n[02/13 04:44:52 d2.data.build]: Removed 4
…
ers += [nn.Conv2d(in_channels, x, kernel_size=3, padding=1),\n                           nn.BatchNorm2d(x),  # 추가\n                           nn.ReLU(inplace=True)]\n                in_channels = x\n                \n        return nn.Sequential(*layers)"
  },
  {
    "objectID": "posts/VGGNet.html#step-6-create-model-instance",
    "href": "posts/VGGNet.html#step-6-create-model-instance",
    "title": "VGGNet",
    "section": "Step 6 : Create Model instance",
    "text": "Step 6 : Create Model instance\n\nmodel = VGG('VGG16').to(device)\nprint(model)\n\nVGG(\n  (features): Sequential(\n    (0): Conv2d(3, 64, kernel_size=(3, 3), stride=(1, 1), padding=(1, 1))\n    (1): BatchNorm2d(64, eps=1e-05, momentum=0.1, affine=True, track_running_stats=True)\n    (2): ReLU(inplace=True)\n    (3): Conv2d(64, 64, kernel_size=(3, 3), stride=(1, 1), padding=(1, 1))\n    (4): BatchNorm2d(64, eps=1e-05, momentum=0.1, affine=True, track_running_stats=True)\n    (5): ReLU(inplace=True)\n    (6): MaxPool2d(kernel_size=2, stride=2, padding=0, dilation=1, ceil_mode=False)\n    (7): Conv2d(64, 128, kernel_size=(3, 3), stride=(1, 1), padding=(1, 1))\n    (8): BatchNorm2d(128, eps=1e-05, momentum=0.1, affine=True, track_running_stats=True)\n    (9): ReLU(inplace=True)\n    (10): Conv2d(128, 128, kernel_size=(3, 3), stride=(1, 1), padding=(1, 1))\n    (11): BatchNorm2d(128, eps=1e-05, momentum=0.1, affine=True, track_running_stats=True)\n    (12): ReLU(inplace=True)\n    (13): MaxPool2d(kernel_size=2, stride=2, padding=0, dilation=1, ceil_mode=False)\n    (14): Conv2d(128, 256, kernel_size=(3, 3), stride=(1, 1), padding=(1, 1))\n    (15): BatchNorm2d(256, eps=1e-05, momentum=0.1, affine=True, track_running_stats=True)\n    (16): ReLU(inplace=True)\n    (17): Conv2d(256, 256, kernel_size=(3, 3), stride=(1, 1), padding=(1, 1))\n    (18): BatchNorm2d(256, eps=1e-05, momentum=0.1, affine=True, track_running_stats=True)\n    (19): ReLU(inplace=True)\n    (20): Conv2d(256, 256, kernel_size=(3, 3), stride=(1, 1), padding=(1, 1))\n    (21): BatchNorm2d(256, eps=1e-05, momentum=0.1, affine=True, track_running_stats=True)\n    (22): ReLU(inplace=True)\n    (23): MaxPool2d(kernel_size=2, stride=2, padding=0, dilation=1, ceil_mode=False)\n    (24): Conv2d(256, 512, kernel_size=(3, 3), stride=(1, 1), padding=(1, 1))\n    (25): BatchNorm2d(512, eps=1e-05, momentum=0.1, affine=True, track_running_stats=True)\n    (26): ReLU(inplace=True)\n    (27): Conv2d(512, 512, kernel_size=(3, 3), stride=(1, 1), padding=(1, 1))\n    (28): BatchNorm2d(512, eps=1e-05, momentum=0.1, affine=True, track_running_stats=True)\n    (29): ReLU(inplace=True)\n    (30): Conv2d(512, 512, kernel_size=(3, 3), stride=(1, 1), padding=(1, 1))\n    (31): BatchNorm2d(512, eps=1e-05, momentum=0.1, affine=True, track_running_stats=True)\n    (32): ReLU(inplace=True)\n    (33): MaxPool2d(kernel_size=2, stride=2, padding=0, dilation=1, ceil_mode=False)\n    (34): Conv2d(512, 512, kernel_size=(3, 3), stride=(1, 1), padding=(1, 1))\n    (35): BatchNorm2d(512, eps=1e-05, momentum=0.1, affine=True, track_running_stats=True)\n    (36): ReLU(inplace=True)\n    (37): Conv2d(512, 512, kernel_size=(3, 3), stride=(1, 1), padding=(1, 1))\n    (38): BatchNorm2d(512, eps=1e-05, momentum=0.1, affine=True, track_running_stats=True)\n    (39): ReLU(inplace=True)\n    (40): Conv2d(512, 512, kernel_size=(3, 3), stride=(1, 1), padding=(1, 1))\n    (41): BatchNorm2d(512, eps=1e-05, momentum=0.1, affine=True, track_running_stats=True)\n    (42): ReLU(inplace=True)\n    (43): MaxPool2d(kernel_size=2, stride=2, padding=0, dilation=1, ceil_mode=False)\n  )\n  (classifier): Sequential(\n    (0): Linear(in_features=25088, out_features=360, bias=True)\n    (1): ReLU(inplace=True)\n    (2): Dropout(p=0.5, inplace=False)\n    (3): Linear(in_features=360, out_features=100, bias=True)\n    (4): ReLU(inplace=True)\n    (5): Dropout(p=0.5, inplace=False)\n    (6): Linear(in_features=100, out_features=10, bias=True)\n  )\n)"
  },
  {
    "objectID": "posts/VGGNet.html#step-7-model-compile",
    "href": "posts/VGGNet.html#step-7-model-compile",
    "title": "VGGNet",
    "section": "Step 7 : Model compile",
    "text": "Step 7 : Model compile\n\n# loss\nloss = nn.CrossEntropyLoss()\n# optimizer\noptimizer = torch.optim.SGD(model.parameters(), lr=learning_rate, momentum=0.9)"
…
