…
ers += [nn.Conv2d(in_channels, x, kernel_size=3, padding=1),\n                           nn.BatchNorm2d(x),  # 추가\n                           nn.ReLU(inplace=True)]\n                in_channels = x\n                \n        return nn.Sequential(*layers)"
  },
  {
    "objectID": "posts/VGGNet.html#step-6-create-model-instance",
    "href": "posts/VGGNet.html#step-6-create-model-instance",
    "title": "VGGNet",
    "section": "Step 6 : Create Model instance",
    "text": "Step 6 : Create Model instance\n\nmodel = VGG('VGG16').to(device)\nprint(model)\n\nVGG(\n  (features): Sequential(\n    (0): Conv2d(3, 64, kernel_size=(3, 3), stride=(1, 1), padding=(1, 1))\n    (1): BatchNorm2d(64, eps=1e-05, momentum=0.1, affine=True, track_running_stats=True)\n    (2): ReLU(inplace=True)\n    (3): Conv2d(64, 64, kernel_size=(3, 3), stride=(1, 1), padding=(1, 1))\n    (4): BatchNorm2d(64, eps=1e-05, momentum=0.1, affine=True, track_running_stats=True)\n    (5): ReLU(inplace=True)\n    (6): MaxPool2d(kernel_size=2, stride=2, padding=0, dilation=1, ceil_mode=False)\n    (7): Conv2d(64, 128, kernel_size=(3, 3), stride=(1, 1), padding=(1, 1))\n    (8): BatchNorm2d(128, eps=1e-05, momentum=0.1, affine=True, track_running_stats=True)\n    (9): ReLU(inplace=True)\n    (10): Conv2d(128, 128, kernel_size=(3, 3), stride=(1, 1), padding=(1, 1))\n    (11): BatchNorm2d(128, eps=1e-05, momentum=0.1, affine=True, track_running_stats=True)\n    (12): ReLU(inplace=True)\n    (13): MaxPool2d(kernel_size=2, stride=2, padding=0, dilation=1, ceil_mode=False)\n    (14): Conv2d(128, 256, kernel_size=(3, 3), stride=(1, 1), padding=(1, 1))\n    (15): BatchNorm2d(256, eps=1e-05, momentum=0.1, affine=True, track_running_stats=True)\n    (16): ReLU(inplace=True)\n    (17): Conv2d(256, 256, kernel_size=(3, 3), stride=(1, 1), padding=(1, 1))\n    (18): BatchNorm2d(256, eps=1e-05, momentum=0.1, affine=True, track_running_stats=True)\n    (19): ReLU(inplace=True)\n    (20): Conv2d(256, 256, kernel_size=(3, 3), stride=(1, 1), padding=(1, 1))\n    (21): BatchNorm2d(256, eps=1e-05, momentum=0.1, affine=True, track_running_stats=True)\n    (22): ReLU(inplace=True)\n    (23): MaxPool2d(kernel_size=2, stride=2, padding=0, dilation=1, ceil_mode=False)\n    (24): Conv2d(256, 512, kernel_size=(3, 3), stride=(1, 1), padding=(1, 1))\n    (25): BatchNorm2d(512, eps=1e-05, momentum=0.1, affine=True, track_running_stats=True)\n    (26): ReLU(inplace=True)\n    (27): Conv2d(512, 512, kernel_size=(3, 3), stride=(1, 1), padding=(1, 1))\n    (28): BatchNorm2d(512, eps=1e-05, momentum=0.1, affine=True, track_running_stats=True)\n    (29): ReLU(inplace=True)\n    (30): Conv2d(512, 512, kernel_size=(3, 3), stride=(1, 1), padding=(1, 1))\n    (31): BatchNorm2d(512, eps=1e-05, momentum=0.1, affine=True, track_running_stats=True)\n    (32): ReLU(inplace=True)\n    (33): MaxPool2d(kernel_size=2, stride=2, padding=0, dilation=1, ceil_mode=False)\n    (34): Conv2d(512, 512, kernel_size=(3, 3), stride=(1, 1), padding=(1, 1))\n    (35): BatchNorm2d(512, eps=1e-05, momentum=0.1, affine=True, track_running_stats=True)\n    (36): ReLU(inplace=True)\n    (37): Conv2d(512, 512, kernel_size=(3, 3), stride=(1, 1), padding=(1, 1))\n    (38): BatchNorm2d(512, eps=1e-05, momentum=0.1, affine=True, track_running_stats=True)\n    (39): ReLU(inplace=True)\n    (40): Conv2d(512, 512, kernel_size=(3, 3), stride=(1, 1), padding=(1, 1))\n    (41): BatchNorm2d(512, eps=1e-05, momentum=0.1, affine=True, track_running_stats=True)\n    (42): ReLU(inplace=True)\n    (43): MaxPool2d(kernel_size=2, stride=2, padding=0, dilation=1, ceil_mode=False)\n  )\n  (classifier): Sequential(\n    (0): Linear(in_features=25088, out_features=360, bias=True)\n    (1): ReLU(inplace=True)\n    (2): Dropout(p=0.5, inplace=False)\n    (3): Linear(in_features=360, out_features=100, bias=True)\n    (4): ReLU(inplace=True)\n    (5): Dropout(p=0.5, inplace=False)\n    (6): Linear(in_features=100, out_features=10, bias=True)\n  )\n)"
  },
  {
    "objectID": "posts/VGGNet.html#step-7-model-compile",
    "href": "posts/VGGNet.html#step-7-model-compile",
    "title": "VGGNet",
    "section": "Step 7 : Model compile",
    "text": "Step 7 : Model compile\n\n# loss\nloss = nn.CrossEntropyLoss()\n# optimizer\noptimizer = torch.optim.SGD(model.parameters(), lr=learning_rate, momentum=0.9)"
…
      nn.ReLU(inplace=True),\n            nn.Linear(4096, num_classes),\n        )\n    def forward(self, x):\n        x = self.features(x)\n        x = x.view(x.size(0), -1)\n        x = self.classifier(x)\n        return(x)"
  },
  {
    "objectID": "posts/AlexNet.html#step-6-create-model-instance",
    "href": "posts/AlexNet.html#step-6-create-model-instance",
    "title": "AlexNet",
    "section": "Step 6 : Create Model instance",
    "text": "Step 6 : Create Model instance\n\n# Create Moedl instance\nmodel = AlexNet().to(device)\nprint(model)\n\nAlexNet(\n  (features): Sequential(\n    (0): Conv2d(3, 96, kernel_size=(11, 11), stride=(4, 4))\n    (1): ReLU(inplace=True)\n    (2): MaxPool2d(kernel_size=3, stride=2, padding=1, dilation=1, ceil_mode=False)\n    (3): Conv2d(96, 256, kernel_size=(5, 5), stride=(1, 1), padding=(2, 2))\n    (4): ReLU(inplace=True)\n    (5): MaxPool2d(kernel_size=3, stride=2, padding=1, dilation=1, ceil_mode=False)\n    (6): Conv2d(256, 384, kernel_size=(3, 3), stride=(1, 1), padding=(1, 1))\n    (7): ReLU(inplace=True)\n    (8): Conv2d(384, 384, kernel_size=(3, 3), stride=(1, 1), padding=(1, 1))\n    (9): ReLU(inplace=True)\n    (10): Conv2d(384, 256, kernel_size=(3, 3), stride=(1, 1), padding=(1, 1))\n    (11): ReLU(inplace=True)\n    (12): MaxPool2d(kernel_size=3, stride=2, padding=1, dilation=1, ceil_mode=False)\n  )\n  (classifier): Sequential(\n    (0): Linear(in_features=256, out_features=4096, bias=True)\n    (1): Dropout(p=0.5, inplace=False)\n    (2): ReLU(inplace=True)\n    (3): Linear(in_features=4096, out_features=10, bias=True)\n  )\n)"
  },
  {
    "objectID": "posts/AlexNet.html#step-7-model-compile",
    "href": "posts/AlexNet.html#step-7-model-compile",
    "title": "AlexNet",
    "section": "Step 7 : Model compile",
    "text": "Step 7 : Model compile\n\n# loss\nloss = nn.CrossEntropyLoss()\n\n# optimizer\noptimizer = torch.optim.Adam(model.parameters(), lr=learning_rate)"
…
